ir_version: 3
producer_name: "CNTK"
producer_version: "2.5.1"
domain: "ai.cntk"
model_version: 1
graph {
  node {
    input: "Input3"
    input: "Parameter5"
    input: "Parameter6"
    input: "Parameter4"
    input: ""
    input: "Block1237_Output_0_initial_h"
    input: "Block1237_Output_1_initial_c"
    input: ""
    output: "Block1237_Output_0_before_reshape"
    name: "Block1237"
    op_type: "LSTM"
    attribute {
      name: "direction"
      s: "reverse"
      type: STRING
    }
    attribute {
      name: "activations"
      strings: "Sigmoid"
      strings: "Tanh"
      strings: "Tanh"
      type: STRINGS
    }
    attribute {
      name: "hidden_size"
      i: 3
      type: INT
    }
    attribute {
      name: "input_forget"
      i: 0
      type: INT
    }
    doc_string: ""
    domain: ""
  }
  node {
    input: "Block1237_Output_0_before_reshape"
    input: "Block1237_Output_0_shape"
    output: "Block1237_Output_0"
    name: "Combine1218_reshape"
    op_type: "Reshape"
    doc_string: ""
    domain: ""
  }
  node {
    input: "Input3"
    input: "Parameter454"
    input: "Parameter455"
    input: "Parameter453"
    input: ""
    input: "Block1326_Output_0_initial_h"
    input: "Block1326_Output_1_initial_c"
    input: ""
    output: "Block1326_Output_0_before_reshape"
    name: "Block1326"
    op_type: "LSTM"
    attribute {
      name: "direction"
      s: "forward"
      type: STRING
    }
    attribute {
      name: "activations"
      strings: "Sigmoid"
      strings: "Tanh"
      strings: "Tanh"
      type: STRINGS
    }
    attribute {
      name: "hidden_size"
      i: 3
      type: INT
    }
    attribute {
      name: "input_forget"
      i: 0
      type: INT
    }
    doc_string: ""
    domain: ""
  }
  node {
    input: "Block1326_Output_0_before_reshape"
    input: "Block1326_Output_0_shape"
    output: "Block1326_Output_0"
    name: "Combine1307_reshape"
    op_type: "Reshape"
    doc_string: ""
    domain: ""
  }
  node {
    input: "Block1237_Output_0"
    input: "Block1326_Output_0"
    output: "Splice1349_Output_0"
    name: "Splice1349"
    op_type: "Concat"
    attribute {
      name: "axis"
      i: 2
      type: INT
    }
    doc_string: ""
    domain: ""
  }
  name: "CNTKGraph"
  initializer {
    dims: 1
    dims: 12
    dims: 2
    data_type: 1
…
    name: "Parameter5"
  }
  initializer {
    dims: 1
    dims: 12
    dims: 3
    data_type: 1
…
    name: "Parameter6"
  }
  initializer {
    dims: 1
    dims: 24
    data_type: 1
…
    name: "Parameter4"
  }
  initializer {
    dims: 1
    dims: 1
    dims: 3
    data_type: 1
    float_data: 0
    float_data: 0
    float_data: 0
    name: "Block1237_Output_0_initial_h"
  }
  initializer {
    dims: 1
    dims: 1
    dims: 3
    data_type: 1
    float_data: 0
    float_data: 0
    float_data: 0
    name: "Block1237_Output_1_initial_c"
  }
  initializer {
    dims: 3
    data_type: 7
    int64_data: 0
    int64_data: 1
    int64_data: 3
    name: "Block1237_Output_0_shape"
  }
  initializer {
    dims: 1
    dims: 12
    dims: 2
    data_type: 1
…
    name: "Parameter454"
  }
  initializer {
    dims: 1
    dims: 12
    dims: 3
    data_type: 1
…
    name: "Parameter455"
  }
  initializer {
    dims: 1
    dims: 24
    data_type: 1
…
    name: "Parameter453"
  }
  initializer {
    dims: 1
    dims: 1
    dims: 3
    data_type: 1
    float_data: 0
    float_data: 0
    float_data: 0
    name: "Block1326_Output_0_initial_h"
  }
  initializer {
    dims: 1
    dims: 1
    dims: 3
    data_type: 1
    float_data: 0
    float_data: 0
    float_data: 0
    name: "Block1326_Output_1_initial_c"
  }
  initializer {
    dims: 3
    data_type: 7
    int64_data: 0
    int64_data: 1
    int64_data: 3
    name: "Block1326_Output_0_shape"
  }
  input {
    name: "Input3"
    type {
      tensor_type {
        elem_type: 1
        shape {
          dim {
            dim_param: "None"
          }
          dim {
            dim_value: 1
          }
          dim {
            dim_value: 2
          }
        }
      }
    }
  }
  input {
    name: "Parameter5"
    type {
      tensor_type {
        elem_type: 1
        shape {
          dim {
            dim_value: 1
          }
          dim {
            dim_value: 12
          }
          dim {
            dim_value: 2
          }
        }
      }
    }
  }
  input {
    name: "Parameter6"
    type {
      tensor_type {
        elem_type: 1
        shape {
          dim {
            dim_value: 1
          }
          dim {
            dim_value: 12
          }
          dim {
            dim_value: 3
          }
        }
      }
    }
  }
  input {
    name: "Parameter4"
    type {
      tensor_type {
        elem_type: 1
        shape {
          dim {
            dim_value: 1
          }
          dim {
            dim_value: 24
          }
        }
      }
    }
  }
  input {
    name: "Block1237_Output_0_initial_h"
    type {
      tensor_type {
        elem_type: 1
        shape {
          dim {
            dim_value: 1
          }
          dim {
            dim_value: 1
          }
          dim {
            dim_value: 3
          }
        }
      }
    }
  }
  input {
    name: "Block1237_Output_1_initial_c"
    type {
      tensor_type {
        elem_type: 1
        shape {
          dim {
            dim_value: 1
          }
          dim {
            dim_value: 1
          }
          dim {
            dim_value: 3
          }
        }
      }
    }
  }
  input {
    name: "Block1237_Output_0_shape"
    type {
      tensor_type {
        elem_type: 7
        shape {
          dim {
            dim_value: 3
          }
        }
      }
    }
  }
  input {
    name: "Parameter454"
    type {
      tensor_type {
        elem_type: 1
        shape {
          dim {
            dim_value: 1
          }
          dim {
            dim_value: 12
          }
          dim {
            dim_value: 2
          }
        }
      }
    }
  }
  input {
    name: "Parameter455"
    type {
      tensor_type {
        elem_type: 1
        shape {
          dim {
            dim_value: 1
          }
          dim {
            dim_value: 12
          }
          dim {
            dim_value: 3
          }
        }
      }
    }
  }
  input {
    name: "Parameter453"
    type {
      tensor_type {
        elem_type: 1
        shape {
          dim {
            dim_value: 1
          }
          dim {
            dim_value: 24
          }
        }
      }
    }
  }
  input {
    name: "Block1326_Output_0_initial_h"
    type {
      tensor_type {
        elem_type: 1
        shape {
          dim {
            dim_value: 1
          }
          dim {
            dim_value: 1
          }
          dim {
            dim_value: 3
          }
        }
      }
    }
  }
  input {
    name: "Block1326_Output_1_initial_c"
    type {
      tensor_type {
        elem_type: 1
        shape {
          dim {
            dim_value: 1
          }
          dim {
            dim_value: 1
          }
          dim {
            dim_value: 3
          }
        }
      }
    }
  }
  input {
    name: "Block1326_Output_0_shape"
    type {
      tensor_type {
        elem_type: 7
        shape {
          dim {
            dim_value: 3
          }
        }
      }
    }
  }
  output {
    name: "Splice1349_Output_0"
    type {
      tensor_type {
        elem_type: 1
        shape {
          dim {
          }
          dim {
            dim_value: 1
          }
          dim {
            dim_value: 6
          }
        }
      }
    }
  }
  value_info {
    name: "Block1237_Output_0_before_reshape"
    type {
      tensor_type {
        elem_type: 1
        shape {
          dim {
            dim_param: "None"
          }
          dim {
            dim_value: 1
          }
          dim {
            dim_value: 1
          }
          dim {
            dim_value: 3
          }
        }
      }
    }
  }
  value_info {
    name: "Block1326_Output_0_before_reshape"
    type {
      tensor_type {
        elem_type: 1
        shape {
          dim {
            dim_param: "None"
          }
          dim {
            dim_value: 1
          }
          dim {
            dim_value: 1
          }
          dim {
            dim_value: 3
          }
        }
      }
    }
  }
  value_info {
    name: "Block1237_Output_0"
    type {
      tensor_type {
        elem_type: 1
        shape {
          dim {
            dim_param: "None"
          }
          dim {
            dim_value: 1
          }
          dim {
            dim_value: 3
          }
        }
      }
    }
  }
  value_info {
    name: "Block1326_Output_0"
    type {
      tensor_type {
        elem_type: 1
        shape {
          dim {
            dim_param: "None"
          }
          dim {
            dim_value: 1
          }
          dim {
            dim_value: 3
          }
        }
      }
    }
  }
}
opset_import {
  domain: ""
  version: 7
}
